cifar_net.pth (torch, 251604 bytes, 10 tensors)

conv1.weight f4 [6, 3, 5, 5]
0	0x3e8cdb5e	0.27511114
1	0x3e44b3de	0.19209239
2	0x3e14b4c0	0.14522076
3	0x3e17ccb5	0.14824183
4	0x3ec6d961	0.38837722
5	0x3e4c81d1	0.19971396
6	0x3e763750	0.24044538
7	0x3e829da0	0.25510883
8	0x3dbe22af	0.09283959
9	0x3e2b0eb5	0.16704829
10	0x3deb154c	0.114786714
11	0x3e570593	0.2099822
12	0x3e7e6df4	0.24846631
13	0x3d171426	0.03688445
14	0xbd368f5f	-0.044570323
15	0xbd4e3ec4	-0.050352827
16	0x3e10c95d	0.14139314
17	0x3e58f4f5	0.21187194
18	0x3dc8e61e	0.09809516
19	0xbe653ec4	-0.22387224
20	0xbdeef4cc	-0.11667785
21	0xbd99840c	-0.07495889
22	0xbce3fbda	-0.027830053
23	0xbd51d7d4	-0.05123122
24	0xbe91d8c9	-0.28485706
25	0xbe12e465	-0.14344938
26	0xbe90ed4e	-0.2830605
27	0xbead54d9	-0.33853796
28	0xbed9c1b3	-0.42530593
29	0xbe43918c	-0.1909849
30	0x3c0a27f0	0.008432373
31	0xbe1659e8	-0.14682734
32	0xbe89e33a	-0.26931173
33	0xbf0330a1	-0.51246077
34	0xbed50046	-0.4160177
35	0xbd52656e	-0.051366262
36	0x3dbd9ba0	0.09258199
37	0x3ca21d02	0.019789223
38	0xbec3938c	-0.38198507
39	0xbedd8f9b	-0.43273625
40	0xbe048698	-0.12941968
41	0x3c97082c	0.018436514
42	0x3d6c47e4	0.057685748
43	0xbc861011	-0.016365083
44	0xbe9f5cfb	-0.31125626
45	0xbd0132da	-0.031542636
46	0x3cd08765	0.025455186
47	0x3e8885b9	0.26664522
48	0x3cc2d7ad	0.023784483
49	0xbe1b2db0	-0.15154147
50	0x3dae4fc9	0.085113116
51	0x3d8c057a	0.06836982
52	0xbe0ae3a3	-0.13563399
53	0xbe217631	-0.15767743
54	0x3c923884	0.017849214
55	0x3d925122	0.07144381
56	0x3e7b9bea	0.24571195
57	0xbd753b65	-0.059871096
58	0xbe20ff7c	-0.1572246
59	0xbe39f0a1	-0.18158199
60	0x3e25b305	0.16181572
61	0x3e2f36c8	0.17110741
62	0x3e425da8	0.1898104
63	0xbdd4e675	-0.10395519
64	0xbe3ddaf2	-0.18540552
65	0x3e3efddc	0.18651527
66	0x3e407a45	0.18796642
67	0x3e25c38b	0.16187875
68	0x3c92438e	0.017854478
69	0xbe12aa0e	-0.14322683
70	0x3e28ec9e	0.16496512
71	0x3e2847dd	0.16433664
72	0x3ea1fa18	0.3163612
73	0x3e143bb2	0.14475897
74	0x3de621ea	0.11236937
75	0xbdc3163b	-0.095257245
76	0xbda163be	-0.078803524
77	0xbe3efce8	-0.18651164
78	0xbc718047	-0.014740056
79	0xbe63c827	-0.22244321
80	0xbe23b479	-0.15986814
81	0xbdefd534	-0.11710587
82	0xbe569068	-0.20953524
83	0xbe394256	-0.18091711
84	0xbe12ec65	-0.1434799
85	0xbee284cc	-0.4424194
86	0xbe918c67	-0.2842743
87	0xbebaa9ec	-0.36457765
88	0xbe3cc002	-0.1843262
89	0xbe1b0216	-0.15137514
90	0xbe7abe3f	-0.24486636
91	0xbe3b8f8d	-0.18316479
92	0xbe812c24	-0.2522899
93	0xbe8882bc	-0.26662242
94	0xbe97c2e0	-0.29640865
95	0x3e055a85	0.13022812
96	0x3eb1567d	0.34636298
97	0x3e6435b6	0.22286114
98	0x3da427bb	0.080153905
99	0xbc811510	-0.015757114
100	0xbd97aeed	-0.07406411
101	0xbe096866	-0.13418731
102	0x3cec385a	0.028835464
103	0x3cb0b3c5	0.021570096
104	0x3b1dfcde	0.002410702
105	0xbde69cc7	-0.11260372
106	0x3d833638	0.06406826
107	0x3d31f74d	0.043448735
108	0x3d3c42d7	0.04596218
109	0x3d8995a6	0.06717996
110	0xbdb26c24	-0.087120324
111	0xbe876140	-0.26441383
112	0xbde432bd	-0.1114249
113	0xbd984d17	-0.07436579
114	0xbe15786a	-0.14596716
115	0xbb6b1d5e	-0.0035875659
116	0xbe39f552	-0.18159989
117	0xbdc8239a	-0.097724155
118	0xbdaeb8d5	-0.08531348
119	0xbdf19a8c	-0.117970556
120	0x3d59234e	0.053012185
121	0x3e50ccb6	0.20390591
122	0x3db06e4e	0.08614789
123	0x3e2f2cb4	0.17106897
124	0xbc993223	-0.018700665
125	0x3d88690f	0.06660663
126	0x3e0d14f6	0.13777527
127	0x3d8750e5	0.06607226
128	0x3ea901c2	0.33009154
129	0x3e8db307	0.2767565
130	0x3e16543e	0.14680573
131	0x3e54d306	0.20783624
132	0x3dd1e2fd	0.10248373
133	0x3e6e31a7	0.23261128
134	0x3e80a2f4	0.25124323
135	0x3c91d42e	0.01780137
136	0x3a9db9fc	0.0012033577
137	0xbd886a9f	-0.06660961
138	0x3e052edf	0.13006161
139	0x3d65bdfe	0.056089394
140	0x3db6876b	0.08912548
141	0xbcf6ad71	-0.030112
142	0x3e30d365	0.1726814
143	0x3d4f38c6	0.050591253
144	0x3e515955	0.20444234
145	0x3d6ed7de	0.058311336
146	0x3e303c54	0.17210513
147	0x3e460e97	0.19341503
148	0x3e90fe46	0.28318995
149	0x3e503b3e	0.20335099
150	0x3d229c36	0.039699756
151	0xbd75a008	-0.05996707
152	0x3d8e87f7	0.06959527
153	0x3daee44c	0.08539638
154	0xbd8db7f5	-0.06919853
155	0xbbfd76eb	-0.0077351234
156	0x3d9ccac8	0.07655865
157	0xbd1d7a2b	-0.038446587
158	0xbc91cb0e	-0.01779702
159	0xbcca6ea9	-0.02471097
160	0x3dd1488a	0.10218914
161	0x3d8edb21	0.06975389
162	0x3d371d19	0.044705484
163	0xbe2d8818	-0.16946447
164	0xbdba7849	-0.09104974
165	0xbdeebc34	-0.11656991
166	0x3c630ef0	0.013858542
167	0x3c2b0b26	0.01043967
168	0xbd38bb9e	-0.0451008
169	0xbc73de68	-0.014884569
170	0xbc777808	-0.015104301
171	0x3b27799a	0.0025554658
172	0x3ca4a2e5	0.020097205
173	0xbe3301b9	-0.17481126
174	0xbe348c7b	-0.17631714
175	0xbe4380cd	-0.19092102
176	0x3c61d786	0.013784295
177	0xbded4f2b	-0.11587366
178	0xbdef3802	-0.116806045
179	0xbce89ba7	-0.028394533
180	0xbdc60254	-0.09668413
181	0xbb86dd2f	-0.0041157226
182	0x3cb04098	0.021515176
183	0xbd9b3d6f	-0.07580077
184	0xbb898efd	-0.0041979537
185	0xbd055724	-0.032553807
186	0x3db9250e	0.09040271
187	0xbd74edf8	-0.059797257
188	0xbd39fb6b	-0.045405786
189	0xbd8ff9ff	-0.07030105
190	0xbd39b2fb	-0.045336705
191	0x3d126cc4	0.03574826
192	0xbd26eacb	-0.04075126
193	0xbe02f0b3	-0.12787132
194	0xbe3dac69	-0.185228
195	0xbdcb5011	-0.09927381
196	0x3d4390ec	0.04774563
197	0xbdfb80d7	-0.122804336
198	0xbdfcc80b	-0.12342843
199	0xbe29333b	-0.16523449
200	0x3d98d445	0.07462362
201	0x3e0a66e7	0.13515817
202	0x3e3b4499	0.18287887
203	0x3e025e6e	0.12731335
204	0x3e322667	0.17397462
205	0x3e31c8be	0.17361733
206	0x3ea4c1d9	0.32179144
207	0x3e3586c1	0.17727186
208	0x3e373104	0.17889792
209	0xbc81eed4	-0.015860952
210	0x3e230e1c	0.15923351
211	0x3e804d01	0.2505875
212	0x3e450e00	0.19243622
213	0x3e20d8c9	0.15707697
214	0xbc42328c	-0.011852872
215	0x3e7bd438	0.24592674
216	0x3ead349b	0.33829197
217	0x3daf8f11	0.085722096
218	0x3e1d46f5	0.15359099
219	0xbbcda840	-0.0062761605
220	0x3e48775e	0.19576785
221	0x3e8af9c8	0.27143693
222	0x3e163319	0.1466793
223	0x3e390258	0.180673
224	0x3d216c23	0.039409768
225	0x3ec0d78c	0.3766445
226	0x3ec7ca59	0.39021567
227	0x3ed20ecb	0.4102691
228	0x3ec2210e	0.37915844
229	0x3ec9b57b	0.3939627
230	0x3e33456b	0.1750695
231	0x3ea25b52	0.31710297
232	0x3ec626cc	0.38701475
233	0x3ec61e9a	0.38695222
234	0x3e868efe	0.2628097
235	0xbe1bcff8	-0.15216053
236	0xbe51e725	-0.20498331
237	0xbebd8891	-0.37018254
238	0xbe9bfd1e	-0.3046655
239	0xbe60492a	-0.2190291
240	0xbe8a5b72	-0.27022892
241	0xbec644d3	-0.38724384
242	0xbea64322	-0.32473093
243	0xbea61af9	-0.32442454
244	0xbe0f20ca	-0.13977352
245	0xbe127136	-0.14300999
246	0xbde4b668	-0.11167604
247	0xbce21dab	-0.027602037
248	0xbdc9d1bf	-0.09854459
249	0xbe8959dc	-0.2682637
250	0x3b408208	0.002937438
251	0x3e34df0e	0.17663214
252	0x3e207bbb	0.156722
253	0x3e563563	0.20918803
254	0x3d805926	0.06267004
255	0x3d176570	0.036961973

conv1.bias f4 [6]
0	0xbe4d8e50	-0.20073819
1	0x3e5b32e6	0.21406135
2	0x3e7120d6	0.23547682
3	0xbeda8624	-0.42680466
4	0xbe15d9db	-0.14633887
5	0xbe01e349	-0.12684359

conv2.weight f4 [16, 6, 5, 5]
0	0xbe1346b4	-0.1438244
1	0xbdd20e2c	-0.10256609
2	0xbd8690af	-0.06570565
3	0xbda048ed	-0.078264095
4	0xbe781897	-0.2422813
5	0xbdcf2564	-0.101145536
6	0xbe1072f4	-0.14106351
7	0xbd9d7117	-0.07687586
8	0xbc703d1f	-0.01466301
9	0xbdfaeaf4	-0.12251845
10	0x3d64a113	0.055817675
11	0x3d8ae503	0.06781962
12	0x3dbe8932	0.09303512
13	0x3df68111	0.12036336
14	0x3e41073f	0.1885042
15	0x38883420	6.4946944e-05
16	0xbba234b6	-0.0049501313
17	0x3dce5308	0.10074431
18	0x3c9e10af	0.019295065
19	0x3d86af6c	0.06576428
20	0xbe0155f2	-0.12630442
21	0x3b011b6a	0.0019700178
22	0xbdc27e4e	-0.09496747
23	0xbc8c0a9f	-0.017094908
24	0x3daaf35b	0.083471976
25	0x3dedc251	0.116093285
26	0x3e6c0d9c	0.23052067
27	0x3e6a890b	0.2290384
28	0x3e062082	0.13098338
29	0x3d9a87ea	0.07545455
30	0x3e2a2c10	0.16618371
31	0x3e26e528	0.16298354
32	0xbc4f52f3	-0.012654054
33	0x3e2a37f8	0.16622913
34	0x3de82a6f	0.113362186
35	0x3d9c5693	0.076337
36	0x3dade58b	0.084910475
37	0xbd1fd40a	-0.039020576
38	0x3d0d697c	0.034524426
39	0x3d35ad20	0.044354558
40	0x3d5bf3fa	0.05369947
41	0xbd97ec62	-0.07418133
42	0xbe0adfd7	-0.1356195
43	0xbe05ff3d	-0.13085647
44	0xbddf1e72	-0.10894479
45	0x3eb172a0	0.34657764
46	0x3df7984e	0.12089597
47	0xbbd4b7eb	-0.0064916513
48	0xbc8fa195	-0.017533103
49	0xbccf03ae	-0.02527031
50	0x3e419f6c	0.18908471
51	0x3d514d78	0.05109927
52	0x3e0b59da	0.13608494
53	0xbc6ef1e8	-0.014584042
54	0x3e35f163	0.17767863
55	0x3c04fbc5	0.008116667
56	0xbcca788d	-0.024715686
57	0xbd7d5fcb	-0.061858933
58	0xbd441628	-0.047872692
59	0x3c5d3494	0.013501305
60	0x3c563c4f	0.013075902
61	0xbdf507e3	-0.11964395
62	0xbd97abee	-0.0740584
63	0xbdf724ea	-0.12067588
64	0xbccfc923	-0.025364464
65	0x3d9494d1	0.07254947
66	0xbd2bbff0	-0.041931093
67	0xbe1ad63d	-0.15120788
68	0xbd62e8c5	-0.055397768
69	0xbdd0c18b	-0.101931654
70	0x3d250739	0.04029009
71	0xbc5e4b9c	-0.013567831
72	0xbd7a9b72	-0.0611834
73	0xbddb7478	-0.10715574
74	0xbe059334	-0.13044435
75	0x3ce52688	0.027972475
76	0xbd88bf59	-0.06677122
77	0xbded3276	-0.1158189
78	0x3da823f4	0.082099825
79	0x3e54d85a	0.20785657
80	0xbc8e754a	-0.017389912
81	0x3d703dfa	0.058652855
82	0x3d194f5e	0.037429206
83	0x3cf61a7d	0.030041927
84	0x3e00427d	0.12525363
85	0x3d8ddb75	0.06926624
86	0xbd3288a2	-0.043587334
87	0x3d7a7c66	0.06115379
88	0x3e0883d9	0.13331546
89	0xba39d801	-0.0007089377
90	0xba9c18a7	-0.0011909202
91	0xbd829056	-0.06375186
92	0x3b974b11	0.004617103
93	0x3d994cb0	0.0748533
94	0x3e06fe10	0.13182855
95	0xbd40d887	-0.047081497
96	0xbe138ee3	-0.14409976
97	0xbdd40ba5	-0.103537835
98	0xbdf421e0	-0.11920524
99	0xbd80d13f	-0.062899105
100	0xbc8d3ee6	-0.017241906
101	0x3db58a35	0.088642515
102	0x3dd196a3	0.1023381
103	0x3c7197b0	0.014745638
104	0x3daeaf20	0.08529496
105	0xbdb54b92	-0.088523045
106	0xbdbeeaf9	-0.09322161
107	0xbe02a3e7	-0.12757836
108	0xbd8131ec	-0.0630835
109	0xbbabb92f	-0.0052405815
110	0xbde31b72	-0.11089219
111	0xbdcd7e0a	-0.10033806
112	0xbdca8795	-0.098891415
113	0xbd82889b	-0.06373712
114	0xbd418f1c	-0.04725562
115	0xbdba4a3d	-0.09096191
116	0x3d802d7c	0.062586755
117	0x3d328c2c	0.04359071
118	0xbcf0e8c7	-0.029407872
119	0xbcd25fe9	-0.0256805
120	0x3d064d72	0.0327887
121	0x3e2ff560	0.17183447
122	0x3e1cc5fe	0.15309903
123	0x3db4e108	0.08831984
124	0x3e281872	0.16415575
125	0xbe33121b	-0.17487375
126	0xbd2b4021	-0.041809205
127	0xbd082878	-0.03324172
128	0xbccf8be8	-0.025335267
129	0xbb841a14	-0.004031429
130	0xbe0a6126	-0.13513622
131	0xbe23a221	-0.15979816
132	0xbde2c4c8	-0.11072689
133	0xbd2db335	-0.042407233
134	0x3dbee639	0.09321255
135	0xbda853f9	-0.082191415
136	0xbd476d6f	-0.04868835
137	0xbdcdfb54	-0.10057703
138	0xbde902f9	-0.1137752
139	0x3dc3b33c	0.095556706
140	0xbe132ddc	-0.14372963
141	0xbd962a6c	-0.0733231
142	0xbda745b1	-0.081675895
143	0xbd459a1d	-0.048242677
144	0x3d2efea3	0.04272331
145	0xbdbb7974	-0.09154025
146	0x3d3a4a13	0.0454808
147	0x3d4573af	0.048206028
148	0xbcb6ea11	-0.022328408
149	0x3d79bffd	0.06097411
150	0xbe12096d	-0.14261408
151	0xbe03fe34	-0.1288994
152	0xbe2b46dd	-0.16726251
153	0x3ce15256	0.027505081
154	0x3dc0a8ae	0.09407173
155	0x3ce5f9e3	0.028073257
156	0xbc3922ba	-0.011299783
157	0xbcec6976	-0.028858881
158	0x3d16f5d8	0.03685555
159	0xbc781122	-0.0151408035
160	0xbd04adb8	-0.032392234
161	0xbce69a25	-0.028149674
162	0xbd89629b	-0.067082606
163	0xbd98132d	-0.074255325
164	0x3d5a6545	0.053319234
165	0x3d93e242	0.0722089
166	0xbd0d08e5	-0.03443231
167	0x3ca55e41	0.020186545
168	0xbd263d01	-0.04058552
169	0xbd1be28d	-0.038057853
170	0x3e27c4ab	0.16383617
171	0x3de2f964	0.11082724
172	0x3e057e9d	0.1303658
173	0x3d913ebc	0.07092044
174	0x3e0fd395	0.14045556
175	0xbe15ee8a	-0.14641777
176	0xbdf08937	-0.11744922
177	0x3bab6a3f	0.0052311714
178	0x3e107b89	0.14109625
179	0x3e515d72	0.20445803
180	0xbe0f15a0	-0.13973093
181	0xbddf210f	-0.10894977
182	0xbd10d8cf	-0.035363015
183	0x3de9cfd3	0.114165924
184	0x3e0b5daf	0.13609956
185	0xbde046ef	-0.109510295
186	0xbe1de4e5	-0.15419348
187	0xbc02fb71	-0.007994519
188	0x3d842260	0.06451869
189	0x3e476859	0.19473399
190	0xbd13a65b	-0.03604732
191	0xbc83f8f1	-0.016109915
192	0x3d8b824f	0.06811964
193	0x3da0b615	0.078472294
194	0x3e485099	0.19561996
195	0xbe790b88	-0.24320805
196	0xbb2bfd6c	-0.002624358
197	0x3e0f21b3	0.13977699
198	0x3e5ef254	0.21772128
199	0x3e7a9242	0.24469855
200	0xbe0b1860	-0.13583517
201	0xbe079d4f	-0.13243602
202	0xbb740b1d	-0.003723807
203	0x3cc6327a	0.024193991
204	0x3d2fe49f	0.04294264
205	0xbe40b499	-0.18818893
206	0xbd3e9414	-0.046527937
207	0xbda2e97f	-0.07954692
208	0x3d1f15dc	0.038839206
209	0xbcd4c939	-0.025974857
210	0xbe032c7f	-0.12809943
211	0xbe1d6caf	-0.15373491
212	0x3d55b0c0	0.052170515
213	0x3d4b32f8	0.049609154
214	0x3dfbd832	0.12297095
215	0xbdddfd6a	-0.108393505
216	0xbe18c1b6	-0.14917645
217	0xbdc2c066	-0.09509353
218	0x3c2f480f	0.010698332
219	0x3e3e65b9	0.18593492
220	0xbd3de435	-0.046360213
221	0xbd2ab877	-0.041679826
222	0xbd79c94a	-0.06098298
223	0xbbce1d11	-0.006290086
224	0x3e077b37	0.13230596
225	0xbd855f33	-0.065122984
226	0xbd878791	-0.06617654
227	0xbd9b27b2	-0.07575931
228	0xbe237e54	-0.15966159
229	0xbdc2d9a5	-0.09514169
230	0xbd07f4e9	-0.03319255
231	0xbe0c601e	-0.13708541
232	0xbe60cf8e	-0.21954176
233	0xbe22a5d2	-0.15883568
234	0xbe004f02	-0.12530139
235	0x3a653669	0.00087437645
236	0xbe01a8b5	-0.12662013
237	0xbe294430	-0.16529918
238	0xbe1a546f	-0.15071271
239	0xbe2d3fee	-0.16918918
240	0xbdf13545	-0.117777385
241	0xbde64100	-0.112428665
242	0x3c62a74b	0.013833831
243	0xbd8d626f	-0.0690354
244	0xbe41c687	-0.18923388
245	0xbdc77c1c	-0.09740469
246	0xbcf71eb4	-0.030166008
247	0xbd43e95e	-0.04782998
248	0xbe326feb	-0.17425506
249	0xbdd156a3	-0.10221603
250	0x3d79955e	0.060933463
251	0x39fefcc3	0.00048634977
252	0xbdf58bb3	-0.11989536
253	0xbdb6dab3	-0.08928432
254	0x3d5852cd	0.05281334
255	0xbc914c20	-0.017736495

conv2.bias f4 [16]
0	0xbca3e706	-0.020007621
1	0x3e028526	0.12746105
2	0xbeddb773	-0.43304023
3	0xbe24fc26	-0.16111812
4	0xbe84962a	-0.25895816
5	0x3f1d377b	0.6141278
6	0x3d64bc86	0.055843852
7	0x3d67d08f	0.05659538
8	0x3e79194e	0.24326059
9	0x3f654e22	0.89572346
10	0xbf1e4de5	-0.6183761
11	0xbe1f2609	-0.15541853
12	0xbda2eaf9	-0.07954974
13	0x3eda73a8	0.42666364
14	0xbe1659df	-0.1468272
15	0xbe598379	-0.21241559

fc1.weight f4 [120, 400]
0	0x3af5e2b7	0.0018759583
1	0xbafdf075	-0.001937403
2	0xbd6e1375	-0.058124024
3	0x3b9cdb61	0.004786894
4	0x3b8c0486	0.004273
5	0x3c67c90b	0.0141470535
6	0x3d327a69	0.04357377
7	0xbbbd9699	-0.005785775
8	0xbd2b8e60	-0.041883826
9	0x3d003d89	0.031308684
10	0xbd027284	-0.03184749
11	0xbd15c3b8	-0.036563605
12	0xbd0c13b0	-0.034198463
13	0xbcb82b8c	-0.022481702
14	0xbcce109a	-0.0251544
15	0xbb40a0e0	-0.0029392764
16	0x3c851994	0.016247548
17	0xbd4981fb	-0.049196225
18	0xbb187b91	-0.002326701
19	0xbcd900a7	-0.026489569
20	0x3c8e46e4	0.017367788
21	0x3cdfc78d	0.027316833
22	0x3bf0f2e5	0.007353174
23	0x3d24409c	0.04010068
24	0x3d0d032a	0.034426846
25	0xbcae1578	-0.021250471
26	0x3d14ea8c	0.036356494
27	0xbc1e63ad	-0.009667319
28	0xbc1ba1e0	-0.009499043
29	0xbd12b9c4	-0.03582169
30	0xbd3e39e4	-0.046441928
31	0xbcf9236f	-0.030412404
32	0xbd0289a8	-0.03186956
33	0x3d1e1468	0.03859368
34	0xbc87433f	-0.016511558
35	0xbc397b3f	-0.011320888
36	0x3d13b693	0.03606279
37	0x3d29d653	0.04146416
38	0xbd4c5243	-0.04988314
39	0xbd048539	-0.032353614
40	0xbc3d361b	-0.011548544
41	0xba803123	-0.0009780269
42	0x3d287572	0.04112763
43	0xbcfe02b8	-0.031007156
44	0x3d0b72a4	0.034044877
45	0xbcf11b9d	-0.029432112
46	0xbcfa1e3e	-0.030531999
47	0xbcbf5ae2	-0.023358766
48	0xbad5bc35	-0.00163067
49	0x3caca2d0	0.021073729
50	0xbd1f140c	-0.038837478
51	0x3c847cd5	0.016172806
52	0xbd0ec803	-0.034858715
53	0x3d4dbf84	0.05023147
54	0xbcca15b7	-0.024668558
55	0x3c91e4dd	0.017809326
56	0x3c57973c	0.013158616
57	0xbc9b570c	-0.018962406
58	0xbd3a73a3	-0.045520436
59	0x3c4dbb52	0.012556868
60	0xbce300bf	-0.027710317
61	0xbd01a433	-0.031650733
62	0xbd25822a	-0.040407337
63	0xbd3230c4	-0.043503538
64	0xbc681c20	-0.014166862
65	0x3cd04180	0.025421858
66	0xbd4bc0a2	-0.049744256
67	0xbc1f5d09	-0.009726771
68	0xbc933d5c	-0.017973594
69	0x3d294fc1	0.041335825
70	0xbc065fb5	-0.008201529
71	0xbc8f8195	-0.017517844
72	0xbb2183ff	-0.0024645326
73	0x3cd96974	0.026539542
74	0x3c4d3690	0.012525216
75	0x3d594f06	0.05305388
76	0xbcce5f49	-0.02519192
77	0x3c746a3d	0.014917907
78	0xbbfc72a6	-0.007704097
79	0xbd1406f3	-0.03613944
80	0x3d03121e	0.0319997
81	0x3cc7d34c	0.024392746
82	0x3cfe9262	0.03107566
83	0x3b5a4e9e	0.003331102
84	0x3b940a64	0.00451784
85	0x3d4b3c06	0.04961779
86	0x3cb77c5d	0.022398168
87	0x3b97af47	0.004629049
88	0x3c977991	0.018490585
89	0x3c78bf12	0.015182273
90	0x3d04e57f	0.032445427
91	0x3a69d4d7	0.000891996
92	0xbd025973	-0.031823587
93	0x3afeba2a	0.0019434143
94	0x3d544ad4	0.051829174
95	0x3d0af36c	0.03392355
96	0x3d272d5e	0.04081475
97	0x3c01034b	0.00787432
98	0x3c0bc4f7	0.008530847
99	0xbce6e0c5	-0.02818335
100	0x3bf041f7	0.0073320824
101	0x3d37a8c6	0.04483869
102	0x3c93b32d	0.018029774
103	0xbcf0b3bc	-0.029382579
104	0x3cf48107	0.029846681
105	0xbce406e2	-0.027835313
106	0x3c11d1f7	0.008900157
107	0xbd529b5f	-0.051417705
108	0xbd086225	-0.033296723
109	0xbcd1dfaf	-0.025619356
110	0x3c8824e9	0.016619163
111	0x3d16354f	0.036671933
112	0x3d26305d	0.040573467
113	0xbbee3bea	-0.007270326
114	0xbcda588b	-0.026653549
115	0x3c6cea33	0.014460134
116	0x3d3de6e7	0.046362784
117	0x3c8531f8	0.016259179
118	0xbbd72cee	-0.0065666353
119	0xbd59f4af	-0.053211864
120	0xbaaf7a19	-0.0013387828
121	0xbd19af79	-0.03752086
122	0xbd102354	-0.03518994
123	0x3c74fbda	0.014952624
124	0x3d204e49	0.03913716
125	0x3c025044	0.007953707
126	0x3d563428	0.052295834
127	0x3cca3dac	0.02468761
128	0x3d54d49e	0.05196058
129	0xbc6008b9	-0.013673955
130	0x3d2ad631	0.041708175
131	0x3c9b0ec6	0.018927943
132	0x3a430f4d	0.00074409397
133	0xbd03510f	-0.032059725
134	0x3d649df8	0.055814713
135	0x3cbadb84	0.022809751
136	0x3bf2e57c	0.0074126106
137	0xba9033d3	-0.0011001773
138	0xbd609137	-0.054825988
139	0x3ca99719	0.020701932
140	0xbcdc0425	-0.026857445
141	0x3d5979c1	0.05309463
142	0x3cbf4b22	0.023351256
143	0xbd617a10	-0.05504805
144	0x3c371bf4	0.011176098
145	0x3d2fb1f5	0.042894322
146	0x3d235933	0.03987999
147	0xbca6645d	-0.020311529
148	0x3cd57dd8	0.026060984
149	0x3cadddba	0.021223892
150	0x3cfbacdb	0.030722072
151	0xbcb06572	-0.021532748
152	0xbce243bf	-0.027620194
153	0xbd3a0635	-0.045416076
154	0x3c859904	0.016308315
155	0xb9946546	-0.00028304214
156	0xbd2d3980	-0.042291164
157	0x3ca83666	0.020533752
158	0xbd29ee00	-0.04148674
159	0x3b7df482	0.0038750474
160	0xbd365958	-0.0445188
161	0xbcdc0d35	-0.026861766
162	0x3d11f549	0.035634313
163	0xbcbd64b5	-0.02311931
164	0xbcca6f73	-0.024711346
165	0x3cc4abf7	0.02400778
166	0x3c9d03e4	0.019166894
167	0x3c33031b	0.010926033
168	0x3c5c6bdd	0.013453451
169	0x3cb68500	0.022280216
170	0x3bbc63ae	0.0057491874
171	0x3d1e57c5	0.038657922
172	0x3cb7178a	0.022350091
173	0xbd395e2c	-0.045255825
174	0xbbdc437b	-0.0067219115
175	0xbd3202ad	-0.043459583
176	0xbcd14130	-0.02554378
177	0x3cb2a18d	0.021805549
178	0xbd377b57	-0.04479536
179	0x3c9a46b8	0.01883255
180	0xbcb70b85	-0.02234436
181	0xbd20362b	-0.03911416
182	0xbb6a5478	-0.0035755914
183	0xbd5cd587	-0.053914573
184	0x3c84d121	0.016213002
185	0xbd382475	-0.044956643
186	0xbd42cd68	-0.047559172
187	0xbd272b8d	-0.040813018
188	0xbd45d5ad	-0.04829948
189	0x3bb78fec	0.0056018736
190	0xbd171cb8	-0.036892623
191	0xba3e18bc	-0.00072516105
192	0x3c651af6	0.013983479
193	0xbcfe6c0b	-0.031057378
194	0x3cb66fd9	0.02227013
195	0x3d1d3fb2	0.038390823
196	0x3b4194bc	0.0029538115
197	0xbcbcf182	-0.023064379
198	0xbce25f5b	-0.02763336
199	0x3c473afa	0.012160057
200	0xbcedffad	-0.02905258
201	0xbcf51599	-0.029917525
202	0x3d3b58fe	0.045739166
203	0xbd135051	-0.035965268
204	0x3cbf90e6	0.023384523
205	0x3d075542	0.033040293
206	0x3d3cf50c	0.046132132
207	0xbd130844	-0.035896555
208	0xbc200b1e	-0.009768276
209	0xbc9ac327	-0.018891884
210	0xbd2fa3ce	-0.042880826
211	0x3d0a9616	0.03383454
212	0x3c31c560	0.0108502805
213	0xbca724a0	-0.020403206
214	0xbd3285ba	-0.043584563
215	0xbcf43ee7	-0.02981515
216	0x3d37b0ed	0.044846464
217	0x3d33316a	0.043748297
218	0xbb3c112b	-0.0028696756
219	0xbc3e5628	-0.011617221
220	0xbc528ded	-0.012851221
221	0xbc4e5d0c	-0.012595426
222	0xbd0c61c5	-0.034272928
223	0xbcc1166c	-0.023570262
224	0xbd00665e	-0.031347625
225	0x3c51380f	0.012769713
226	0xbc9b9d90	-0.01899603
227	0x3c99ac91	0.018759044
228	0x3d0265ff	0.031835552
229	0xbcea72b9	-0.028619157
230	0xbd3cd9ec	-0.046106264
231	0xbd4588ad	-0.048226047
232	0x3cd2ab4b	0.025716444
233	0xbbe6af26	-0.0070399223
234	0x3d2bd1ad	0.04194801
235	0x3d2bc17e	0.041932575
236	0x3cf8aafd	0.030354971
237	0xbd3644de	-0.04449927
238	0xbca52c5d	-0.020162756
239	0x3ce5e404	0.028062828
240	0x3c19513c	0.009357747
241	0x3c41430d	0.011795771
242	0xbca81068	-0.020515636
243	0xbaa99cb5	-0.0012940379
244	0xbcee8edb	-0.029120853
245	0xbd2e5683	-0.042562973
246	0xbcd2ba60	-0.025723636
247	0x3d0c5320	0.03425896
248	0xbd147d9f	-0.036252614
249	0xbcf615e8	-0.030039743
250	0xbd5a8c0c	-0.053356215
251	0xbd7dd9da	-0.061975338
252	0x3cdf1cf0	0.027235478
253	0xbb0593df	-0.0020382327
254	0xbcacd7f2	-0.021099064
255	0xbd434404	-0.047672287

fc1.bias f4 [120]
0	0x3cf30830	0.02966699
1	0x3e1c0feb	0.15240447
2	0x3de316da	0.11088343
3	0x3d7a93a6	0.061175965
4	0x3e2ef9ec	0.17087525
5	0x3db346c8	0.08753735
6	0x3dc2404f	0.09484922
7	0x3d0c875e	0.034308784
8	0xbde4a876	-0.11164944
9	0x3d33d03c	0.04389976
10	0x3cd64c25	0.026159355
11	0x3c0c6349	0.008568593
12	0x3de5edb9	0.112269826
13	0x3e1ee519	0.15517081
14	0x3e0de7a7	0.138579
15	0xbcac1ec4	-0.021010764
16	0xbe16dcf7	-0.14732729
17	0x3e71cceb	0.23613326
18	0xbe3529db	-0.17691748
19	0x3b9e21a7	0.004825789
20	0x3d87dfd9	0.066344924
21	0xbdb02dbb	-0.086024724
22	0x3c590fba	0.013248378
23	0x3dd9ac2c	0.10628542
24	0xbda0eb15	-0.07857338
25	0x3d6febb5	0.058574397
26	0x3d7dcb4c	0.061961457
27	0x3e7b5b27	0.2454649
28	0xbd3d0c72	-0.046154447
29	0xbd79bc16	-0.06097039
30	0xbd2c4a0f	-0.042062815
31	0xbdba5af5	-0.0909938
32	0xbc0ea2da	-0.008705819
33	0x3e1867d2	0.14883354
34	0x3e179602	0.14803317
35	0xbc98590f	-0.018597154
36	0x3e1366bc	0.14394659
37	0x3c9a55be	0.018839713
38	0x3d2ea77d	0.042640198
39	0xbd17cafa	-0.037058808
40	0xbd3f0c9a	-0.046642877
41	0xbdacf433	-0.08445015
42	0x3a32c8cc	0.0006820082
43	0x3b69347e	0.0035584266
44	0x3c984e54	0.018592037
45	0xbb11738e	-0.002219412
46	0xbdafcb56	-0.08583705
47	0x3c3d8b66	0.01156888
48	0x3cc70c26	0.024297785
49	0x3d9472d7	0.072484665
50	0x3ca27ec7	0.019835843
51	0x3de4bc16	0.11168687
52	0x3d415a26	0.047205113
53	0x3d9e2b99	0.07723159
54	0x3c813ede	0.015777048
55	0xbbd00bd4	-0.0063490663
56	0x3e1915dc	0.14949745
57	0xbd4351dc	-0.04768549
58	0x3dad35d8	0.084575355
59	0x3d903544	0.070414096
60	0x3d357399	0.044299696
61	0x3cb2759d	0.021784598
62	0xbc38978b	-0.011266599
63	0xbc696cc0	-0.014247119
64	0xbd000e08	-0.03126338
65	0x3cd20c9d	0.02564078
66	0x3da65001	0.08120728
67	0x3caf5d5a	0.021406818
68	0x3e18af8f	0.1491072
69	0x3b5e840f	0.0033953225
70	0x3dc0c090	0.094117284
71	0xbde2047d	-0.11036012
72	0x3d8bf1f2	0.06833257
73	0xbdb9ea30	-0.09077871
74	0x3d8624c3	0.065499805
75	0xbcc776be	-0.024348613
76	0x3c932e7a	0.017966498
77	0xba84f316	-0.0010143246
78	0xbd3f9180	-0.04676962
79	0x3a841103	0.0010075871
80	0xbddaa942	-0.106768146
81	0xbd7a3939	-0.061089728
82	0xbcfd1805	-0.030895242
83	0x3dc1fe21	0.09472299
84	0x3ce0e4fd	0.02745294
85	0x3d33583d	0.043785322
86	0xbd5d2ec5	-0.05399968
87	0x3c75e8fc	0.015009161
88	0xbc9cca45	-0.019139418
89	0x3e43c4b9	0.19118012
90	0xbd265a28	-0.040613323
91	0x3ce18f02	0.027534012
92	0x3da940d3	0.08264317
93	0x3e07d3df	0.13264416
94	0xbe33d429	-0.17561401
95	0xbd82e4aa	-0.063912705
96	0xbe0a39b4	-0.13498574
97	0x3e010703	0.12600331
98	0x3cebc542	0.028780583
99	0x3d47e42a	0.04880158
100	0xbdc19718	-0.09452647
101	0xbd7c8fbe	-0.06166052
102	0x3e2665f3	0.16249828
103	0xbd217a18	-0.03942308
104	0x3d9982c2	0.07495643
105	0x3c0be071	0.008537398
106	0xbd5711da	-0.05250726
107	0x3cfafe59	0.03063886
108	0x3d0d4dfe	0.034498207
109	0xbd4a3d43	-0.04937483
110	0xbcb0f24f	-0.021599917
111	0x3c5b4f9e	0.013385681
112	0xbd73fa29	-0.059564743
113	0xbd3d5f3c	-0.0462334
114	0x3d086b11	0.03330523
115	0x3c39de43	0.011344495
116	0xbdcbed39	-0.09957356
117	0x3dc066ab	0.09394582
118	0xbcf81a23	-0.0302859
119	0xbcbd7941	-0.023129107

fc2.weight f4 [84, 120]
0	0xbc883d3f	-0.016630767
1	0x3d9be4ff	0.07612037
2	0xbcad0718	-0.021121547
3	0xbdc2d7d8	-0.09513825
4	0xbba9c82f	-0.0051813344
5	0xbc95b5e2	-0.018275205
6	0x3ccf29f1	0.025288554
7	0x3d7d71cf	0.061876114
8	0x3d8ca084	0.068665534
9	0xbcb88b5a	-0.022527386
10	0xbd7b00d8	-0.0612801
11	0xbddca695	-0.107739605
12	0xbc8d27aa	-0.017230827
13	0x3d5a2451	0.05325729
14	0x3cf66086	0.030075323
15	0x3d93b241	0.072117336
16	0xbe31dfad	-0.17370482
17	0x3cc3bb4a	0.023893017
18	0xbd63328d	-0.05546813
19	0xbdd38673	-0.103283785
20	0xbd451a5a	-0.048120834
21	0x3d56916b	0.052384775
22	0xbb3e53f9	-0.002904175
23	0xbdc2b1d6	-0.09506576
24	0xbd56977a	-0.052390553
25	0xbd15a19b	-0.036531072
26	0x3cfaed02	0.030630592
27	0xbd7bc7ca	-0.06146983
28	0x3d203ac7	0.039118554
29	0xbc12fe71	-0.008971796
30	0xbd3f24c7	-0.046665933
31	0x3cf69835	0.030101875
32	0x3c0f59b8	0.008749418
33	0xbe1556bf	-0.14583872
34	0xbd19d54d	-0.037556935
35	0x3dcc2ad9	0.0996911
36	0xbdb99910	-0.090623975
37	0xbca5239c	-0.020158581
38	0xbd4a78b9	-0.049431536
39	0xbe14f099	-0.14544906
40	0xbd4a4da5	-0.049390454
41	0x3ddc9ae5	0.10771731
42	0xbda18dcd	-0.078883745
43	0x3ce532b7	0.027978284
44	0xbc7a9c58	-0.015296064
45	0x3abe59a4	0.0014522565
46	0x3d0c8ee0	0.034315944
47	0xbd71cf38	-0.05903551
48	0x3c9074d3	0.017633831
49	0x3d858019	0.06518573
50	0xbc70d47c	-0.014699098
51	0x3e0a8a1b	0.13529246
52	0x3cc37e79	0.023864018
53	0x3db206a2	0.08692671
54	0xbdb20a9e	-0.08693431
55	0xbdb99abb	-0.090627156
56	0x3e2855c1	0.16438963
57	0x3b5718ad	0.0032821104
58	0xb9c40d16	-0.00037393783
59	0xbd0cd7a0	-0.034385324
60	0xbd9c0eb1	-0.0761999
61	0x3c843928	0.016140535
62	0x3d9aa785	0.07551483
63	0xbd0596f0	-0.03261465
64	0x3dbb52f2	0.0914668
65	0x3d3fff9c	0.046874627
66	0x3d21d600	0.039510727
67	0x3ddb68fb	0.10713383
68	0x3ded49b8	0.11586326
69	0x3c71f690	0.014768258
70	0xbd47c015	-0.048767168
71	0xbd6357ea	-0.055503763
72	0x3db2f4c2	0.0873809
73	0x3da51df6	0.08062355
74	0xbc89d839	-0.016826736
75	0x3d9d805e	0.076905
76	0x3d6dade5	0.058027167
77	0xbd2007a6	-0.039069794
78	0x3c807d9b	0.015684893
79	0xbd1604e4	-0.036625758
80	0xbdc0295a	-0.09382887
81	0xbc556596	-0.013024708
82	0x3d82c27c	0.06384751
83	0x3de453b0	0.111487746
84	0x3ce8a6b0	0.028399795
85	0xbdf7c6f0	-0.12098491
86	0xbdc6f25b	-0.097141944
87	0x3cd13855	0.025539557
88	0x3cad01ba	0.021118987
89	0x3cd548e7	0.02603574
90	0xbc91bdcf	-0.017790703
91	0xbd25220d	-0.040315676
92	0xbd9502d4	-0.0727593
93	0xbcbf90cf	-0.02338448
94	0x3d428eb8	0.04749939
95	0xbca1d6b8	-0.019755706
96	0xbe064f19	-0.13116111
97	0x3e068475	0.13136466
98	0x3da5525c	0.080723494
99	0x3cf87bdf	0.030332504
100	0x3d99a578	0.07502264
101	0xbd80a2a8	-0.06281024
102	0x3d35a440	0.044346094
103	0xbd486bfd	-0.04893111
104	0x3de715de	0.11283468
105	0x3cda0535	0.026613811
106	0xbd5a7d1e	-0.053341977
107	0x3a736b99	0.00092857477
108	0xbd572307	-0.05252364
109	0x3d02ab18	0.03190145
110	0xbdbdb42b	-0.0926288
111	0x3d2918e1	0.041283492
112	0xbdb280ef	-0.087159984
113	0xbcc4af8c	-0.024009489
114	0x3d1aa001	0.037750248
115	0xbce19de9	-0.027541118
116	0x3de38999	0.11110229
117	0x3bc421c8	0.0059854724
118	0x3d86c28b	0.06580075
119	0x3d123bba	0.03570149
120	0xbce96391	-0.02848986
121	0x3d8965ae	0.06708847
122	0xbdabffd6	-0.08398406
123	0x3d72b750	0.05925685
124	0x3bd392ab	0.006456693
125	0xbd854e1d	-0.065090396
126	0x3e1939a7	0.14963399
127	0xbd98c38b	-0.07459172
128	0xbc09cf34	-0.0084112175
129	0xbb37d57d	-0.0028050833
130	0xbe2501eb	-0.16114013
131	0xbe23a0f3	-0.15979366
132	0x3d9037a9	0.07041866
133	0x3c94bbf5	0.018156031
134	0xbd6acaab	-0.057322185
135	0x3ddb52e3	0.10709169
136	0xbd61241e	-0.054966085
137	0x3cb9e9b7	0.022694452
138	0x3da1ce1f	0.079006426
139	0x3c089f9c	0.008338835
140	0x3e0b9ee5	0.13634832
141	0xbc41bad6	-0.01182433
142	0x3da134d5	0.07871405
143	0x3d9ac75a	0.075575545
144	0xbd6fe164	-0.05856456
145	0x3d4800af	0.048828777
146	0x3dc3f839	0.09568829
147	0x3d5b76a5	0.053579945
148	0x3d81e0f7	0.06341737
149	0xbd933ebe	-0.071897015
150	0x3db9f0f7	0.090791635
151	0x3c611b1f	0.013739376
152	0xbda75f8c	-0.08172521
153	0x3d957adf	0.072988264
154	0xbde77b15	-0.11302773
155	0xbdd36a6d	-0.103230335
156	0xbc0ef362	-0.008725019
157	0xbd5c6a54	-0.05381234
158	0x3c7802b1	0.01513736
159	0xbd0f3a9f	-0.034968015
160	0x3dd700e6	0.10498218
161	0xbd22c1d1	-0.03973562
162	0xbd0afca4	-0.033932343
163	0xbdc7d911	-0.09758199
164	0xbcaf439c	-0.021394543
165	0x3ce482d6	0.027894419
166	0x3c8510ab	0.0162433
167	0x3d55666d	0.052099634
168	0xbd8a5b08	-0.06755644
169	0xba9a52e7	-0.0011773974
170	0xbde001bf	-0.10937833
171	0x3db4d541	0.088297375
172	0x3d08dad7	0.033411827
173	0x3cb2f53d	0.021845454
174	0xbcfd50ab	-0.030922255
175	0xbd6a8017	-0.057251062
176	0xbd392b02	-0.04520703
177	0x3d3bb1b1	0.045823757
178	0x3bc750fa	0.006082651
179	0x3db26d34	0.08712235
180	0xbcef3534	-0.029200174
181	0x3c9e86ee	0.019351449
182	0xbd87f1f9	-0.066379495
183	0x3e107b9c	0.14109653
184	0xbda04363	-0.07825353
185	0xbd428656	-0.047491394
186	0xbcbb25b7	-0.022845132
187	0x3dbbf5c3	0.09177735
188	0x3df0e3c6	0.11762194
189	0x3dfa0791	0.122084744
190	0x3dd2dd26	0.10296087
191	0xbcda8cd3	-0.026678478
192	0xbdb790f7	-0.08963197
193	0xbd98f80f	-0.074691884
194	0xbc949fef	-0.018142669
195	0x3e08b334	0.1334961
196	0x3bf94baf	0.007607899
197	0x3cf15700	0.02946043
198	0x3cfc6528	0.030809954
199	0x3bc6432e	0.006050489
200	0x3cef7011	0.029228242
201	0x3d77df2f	0.06051558
202	0xbdab1a11	-0.08354581
203	0xbda15d6f	-0.07879149
204	0x3c81d424	0.015848227
205	0x3d0c6e90	0.034285128
206	0x3cf4da31	0.029889198
207	0xbd0a1574	-0.033711866
208	0x3c2d808e	0.010589732
209	0xbd90af84	-0.07064727
210	0x3d823ea1	0.06359602
211	0xbc8fd69c	-0.017558388
212	0x3ddb523c	0.10709044
213	0xbd425569	-0.047444735
214	0x3e127749	0.14303316
215	0x3b9e89bb	0.004838196
216	0x3d166c72	0.036724515
217	0x3d974aef	0.07387339
218	0x3ce49d0a	0.027906913
219	0xbd1ffbdb	-0.039058547
220	0x3c86a1ba	0.01643454
221	0xbd1fc6d8	-0.03900799
222	0xbe12d2b9	-0.14338197
223	0xbd4cb94f	-0.04998141
224	0xbd92977e	-0.07157801
225	0xbd721be8	-0.059108645
226	0xbb962de3	-0.004583107
227	0xbda6e80e	-0.0814973
228	0xbb895fcc	-0.004192328
229	0x3d63a284	0.05557491
230	0xbdcced1c	-0.100061625
231	0x3d978d5b	0.07400008
232	0x3d0af466	0.033924483
233	0xbd3b0ff6	-0.04566952
234	0xbc813d47	-0.01577629
235	0xbbaed478	-0.005335387
236	0x3d46d49f	0.048542615
237	0x3c9d304d	0.01918807
238	0xbd636d60	-0.05552423
239	0xbc2e23a8	-0.010628618
240	0xbbe9328a	-0.0071166204
241	0xbcc6dfe7	-0.024276687
242	0x3d0b2749	0.033973012
243	0xbdaab986	-0.08336167
244	0x3c990328	0.018678263
245	0xbdf2702b	-0.118378006
246	0xbd9b27ed	-0.075759746
247	0x3d30f10c	0.04319863
248	0xbd3f02d9	-0.046633575
249	0x3d1a1b1d	0.037623513
250	0x3d83ddf0	0.064388156
251	0xbdacc03c	-0.08435103
252	0x3de9cd17	0.11416071
253	0xbe013212	-0.12616757
254	0xbdc2b000	-0.095062256
255	0xbdb2dc6e	-0.0873345

fc2.bias f4 [84]
0	0x3e07b45a	0.13252392
1	0x3db32e84	0.087491065
2	0x3ce47680	0.027888536
3	0xbd1a952f	-0.03773993
4	0x3e095dfd	0.1341476
5	0x3ed3d9a4	0.41376984
6	0x3d9ccffa	0.07656856
7	0x3d5c67a8	0.05380979
8	0x3c711906	0.014715439
9	0xbdab5987	-0.08366685
10	0xbc06137b	-0.008183355
11	0xbd8cd5aa	-0.06876691
12	0x3c077332	0.008267211
13	0x3db62297	0.08893316
14	0x3e8d5e28	0.27610898
15	0xbdc18477	-0.09449094
16	0x3c3ef6e5	0.011655544
17	0x3d91fefa	0.07128711
18	0xbd72a465	-0.05923881
19	0xbda8737f	-0.08225154
20	0xbd5e1cd9	-0.05422673
21	0xbd47e76a	-0.048804678
22	0x3ea0c9d3	0.3140398
23	0x3d832488	0.06403452
24	0xbca61cb8	-0.020277366
25	0xbcf76842	-0.030201081
26	0xbdd29755	-0.102827705
27	0x3de33fec	0.110961765
28	0x3d06ecf5	0.032940824
29	0x3d7c8fe2	0.061660655
30	0x3cf6101c	0.030036978
31	0x3def6e06	0.11690907
32	0x3e26a8ea	0.16275373
33	0x3e1a8ba5	0.15092333
34	0x3e089869	0.1333939
35	0x3e0119c1	0.1260748
36	0xbd854290	-0.065068364
37	0x3e901e38	0.28148055
38	0x3d1a9c1b	0.03774653
39	0x3e277796	0.16354212
40	0x3c497715	0.012296458
41	0x3d1e3bc9	0.038631234
42	0x3eab82dc	0.33498275
43	0xbe463a21	-0.19358112
44	0x3d86fb37	0.06590884
45	0x3dc85ad2	0.097829476
46	0x3d2a1121	0.04152024
47	0xbe3a746a	-0.18208471
48	0x3ec1d185	0.37855163
49	0xbdc42cc3	-0.0957885
50	0xbb952fd5	-0.004552821
51	0x38ce5e27	9.840383e-05
52	0x3e22aad8	0.15885484
53	0x3e58f59d	0.21187444
54	0x3d6271ea	0.05528442
55	0x3d35041b	0.04419337
56	0x3e22ea36	0.15909657
57	0x3db3a7da	0.087722495
58	0x3d91d6c1	0.07121039
59	0x3d44f289	0.048082862
60	0xbe102cb2	-0.1407955
61	0x3ae74e75	0.0017647283
62	0xbe7ba1f7	-0.24573503
63	0x3e272d2b	0.16325824
64	0xbe0f63a5	-0.14002855
65	0xbe035027	-0.12823544
66	0x3e9e841b	0.30960163
67	0x3de5da2c	0.112232536
68	0xbdbe1e5a	-0.09283133
69	0xbd986282	-0.07440664
70	0xbbbe13ca	-0.005800699
71	0x3e3a9566	0.18221053
72	0x3d25baa1	0.040461186
73	0x3c4ead82	0.01261461
74	0xbd94baa6	-0.07262163
75	0xbc0ea1e2	-0.008705588
76	0x3d98aeb7	0.07455199
77	0xbcdb0caa	-0.026739437
78	0x3e2615f2	0.16219309
79	0x3e0ac965	0.13553388
80	0x3e7009ac	0.2344119
81	0x3e7dab9a	0.24772492
82	0xbd9c49b5	-0.07631246
83	0x3de9f3a0	0.11423421

fc3.weight f4 [10, 84]
0	0x3e304e9e	0.1721749
1	0xbe2a0648	-0.16603959
2	0xbe63d8f3	-0.22250728
3	0x3d97d093	0.07412829
4	0x3cb78c8c	0.022405885
5	0xbe44d2cc	-0.19221038
6	0x3e158974	0.14603215
7	0xbd44830a	-0.04797653
8	0x3de46d83	0.111537
9	0x3d051e0c	0.032499358
10	0xbda1fa0f	-0.07909023
11	0xbd0446b3	-0.032293987
12	0xbe473312	-0.19453076
13	0x3da1c4e0	0.07898879
14	0x3db0fd2b	0.08642038
15	0x3db8c06a	0.09021075
16	0xbd9ec0f3	-0.07751646
17	0xbd7436a9	-0.05962244
18	0x3cd4bc61	0.025968732
19	0xbd2a6f20	-0.041609883
20	0xbde20adc	-0.110372275
21	0x3e65c75b	0.2243933
22	0x3e1ac3a0	0.15113688
23	0xbcdee9e3	-0.027211135
24	0x3db9673c	0.090528935
25	0xbc8799f3	-0.0165529
26	0x3db798fc	0.08964726
27	0x3dbda8d3	0.09260716
28	0x3da92248	0.08258492
29	0x3d6bda3a	0.057581164
30	0xbd9159b9	-0.07097191
31	0x3e26feda	0.16308156
32	0xbdb85683	-0.09000876
33	0xbe314385	-0.17310913
34	0x3e54a615	0.2076648
35	0xbda4eae9	-0.08052618
36	0xbd24948f	-0.04018074
37	0x3d7f58c9	0.06234053
38	0x3d055e23	0.03256048
39	0xbe13b15b	-0.14423124
40	0x3c8ba99e	0.017048653
41	0x3dd78964	0.10524252
42	0x3e587a0a	0.21140304
43	0xbd42f638	-0.047598094
44	0xbe0d0734	-0.13772279
45	0x3b318297	0.0027085894
46	0xbdd4d527	-0.10392218
47	0x3e316b2f	0.17326044
48	0xbdc2da70	-0.0951432
49	0x3d374a3b	0.044748526
50	0xbdb3a83c	-0.087723225
51	0x3e62d52f	0.22151636
52	0x3e1cd368	0.1531502
53	0xbd180be3	-0.03712071
54	0xbc8aed62	-0.016958896
55	0x3e8f9817	0.28045723
56	0xbe5f96e7	-0.21834908
57	0x3d03a03b	0.03213523
58	0x3e31ab7e	0.17350575
59	0x3d115014	0.03547676
60	0x3d9a2a04	0.07527545
61	0x3da36741	0.079786785
62	0xbd6901df	-0.05688655
63	0x3e55e8e2	0.20889619
64	0x3ce01dc4	0.027357943
65	0x3d1ade0f	0.037809428
66	0xbe1fc641	-0.15602972
67	0x3e435722	0.19076207
68	0xbdc7e840	-0.09761095
69	0x3e13432a	0.1438109
70	0x3ddf57c5	0.109054126
71	0xbc354508	-0.011063822
72	0xbe0da61a	-0.13832894
73	0x3d4c5efb	0.049895268
74	0x3d89d4d6	0.06730048
75	0xbde780c2	-0.113038555
76	0x3e0dc832	0.138459
77	0x3e17ce60	0.1482482
78	0xbe17a3a7	-0.14808522
79	0xbe321166	-0.1738945
80	0xbe3f0d1a	-0.18657342
81	0xbc7b41da	-0.015335524
82	0x3d87abad	0.066245414
83	0x3df1d7bd	0.11808727
84	0x3c388b52	0.011263685
85	0x3e1fe3fb	0.15614311
86	0x3ba28f6a	0.004960944
87	0x3c8b361d	0.016993577
88	0xbd21e37f	-0.039523598
89	0xbd70c7c7	-0.058784273
90	0xbe26973a	-0.16268626
91	0x3dd71e14	0.10503784
92	0xbd8b3a15	-0.06798188
93	0x3e36ba7e	0.17844579
94	0xbd9c4b0d	-0.07631502
95	0xbd8704ed	-0.065927364
96	0xbe1f0d8c	-0.15532511
97	0x3e6083f9	0.21925344
98	0xbe6fc13c	-0.23413557
99	0x3dd3a2f5	0.10333816
100	0x3d1d2765	0.038367648
101	0xbe33bac1	-0.1755171
102	0x3e03f393	0.12885885
103	0x3d15ee17	0.036604013
104	0x3d9bdb74	0.07610217
105	0x3e814e4a	0.25255042
106	0xbc4bf91d	-0.01244953
107	0x3cf17c1a	0.029478122
108	0xbcf02c57	-0.029318018
109	0xbcc0c858	-0.023533031
110	0x3cd5cfe3	0.026100105
111	0xbdba64df	-0.09101271
112	0xbde72ff4	-0.11288443
113	0xbca54b25	-0.020177433
114	0xbdc9e490	-0.09858048
115	0x3e476241	0.19471075
116	0x3e1d5bd1	0.15367056
117	0xbe456e37	-0.19280325
118	0x3ceb6f00	0.028739452
119	0x3bcf6c1a	0.0063300254
120	0x3be2747b	0.006910858
121	0xbe1b67ad	-0.15176268
122	0x3e14a33d	0.14515395
123	0xbdac963a	-0.08427091
124	0xbd91122d	-0.07083545
125	0xbca73f5f	-0.02041596
126	0xbe8ef0b9	-0.27918032
127	0x3e1f82b6	0.15577206
128	0x3e45e3fb	0.19325249
129	0xbcb1d72e	-0.021709051
130	0x3deb38a4	0.11485413
131	0xbcfb1aaf	-0.030652372
132	0xbea9d8d0	-0.33173227
133	0xbdc1526e	-0.0943955
134	0xbd8d7531	-0.06907118
135	0xbe4b9152	-0.19879654
136	0xbe13321f	-0.14374588
137	0xbdd3a70f	-0.10334598
138	0xbd970d0e	-0.07375537
139	0xbd8146f4	-0.06312361
140	0xbe82b046	-0.2552511
141	0xbd120a4d	-0.035654355
142	0xbe13d452	-0.14436463
143	0xbd683ebe	-0.05670046
144	0x3e518ecd	0.2046463
145	0xbd7c08dc	-0.061531886
146	0x3ea0b7d2	0.31390244
147	0x3e5dec85	0.21672256
148	0x3d193d41	0.037411932
149	0xbb77f6ec	-0.0037836386
150	0xbed3e761	-0.41387466
151	0xbc07bf82	-0.008285405
152	0x3d8ccf64	0.06875494
153	0xbe1a3fad	-0.15063353
154	0x3d541ec3	0.05178715
155	0x3dc10b36	0.094259664
156	0xbd89faf3	-0.06737318
157	0x3c05eb64	0.008173797
158	0x3d2adbf3	0.041713666
159	0xbe16ec91	-0.1473868
160	0x3eadec57	0.33969375
161	0x3e89d30f	0.26918837
162	0xbcc1b9a6	-0.023648094
163	0xbe88e3a3	-0.26736173
164	0x3df66e17	0.12032717
165	0xbe83d58b	-0.25748858
166	0x3e2809ee	0.16410038
167	0x3d9faa05	0.077961005
168	0xbe5a421d	-0.21314283
169	0xbd99902f	-0.07498204
170	0xbe089e93	-0.13341741
171	0x3d9e2632	0.07722129
172	0xbd3fd72c	-0.046836063
173	0x3dd34d2e	0.10317455
174	0x3d310658	0.04321894
175	0x3e104e46	0.14092359
176	0xbd60cf92	-0.054885454
177	0xbe1c06ca	-0.15236965
178	0xba58b442	-0.00082666066
179	0x3da1b8ff	0.07896613
180	0x3cbaf4c3	0.02282179
181	0xbd457825	-0.048210282
182	0x3e3863a4	0.1800676
183	0x3d9332da	0.071874335
184	0xbd827612	-0.063701764
185	0x3ea133b5	0.31484762
186	0xbd576102	-0.05258275
187	0x3d8693ea	0.06571181
188	0xbc64104a	-0.013919899
189	0x3d62364d	0.055227567
190	0xbdb6516a	-0.08902247
191	0x3da9254e	0.082590684
192	0x3cc55dac	0.024092518
193	0xbc555cbb	-0.013022597
194	0xbe4127e5	-0.18862875
195	0x3e0ebe7e	0.13939855
196	0x3c8437a4	0.016139813
197	0x3da2f2b2	0.07956447
198	0x3d89aa3b	0.06721922
199	0xbe43a361	-0.19105293
200	0x3c2cd112	0.010547893
201	0xbe137846	-0.1440135
202	0x3d3e1357	0.046405163
203	0x3de3e19f	0.11127018
204	0x39344595	0.00017192059
205	0x3e0b3430	0.13594127
206	0x3b964ca3	0.0045867725
207	0x3e5f9d9f	0.21837471
208	0x3d89351e	0.066995844
209	0x3d624f0b	0.055251162
210	0x3e17d6c1	0.14828016
211	0xbd9b7d10	-0.07592213
212	0xbe6efa5c	-0.23337692
213	0x3d6cd2d5	0.057818253
214	0x3de9d9c4	0.114184886
215	0xbd1d0b11	-0.038340632
216	0x3d8027b6	0.06257574
217	0xbe209744	-0.15682703
218	0xbe193f03	-0.14965443
219	0x3e5b7730	0.21432185
220	0x3e470213	0.19434385
221	0xbdb84154	-0.08996835
222	0xbdcadc8c	-0.09905347
223	0x3e70dd6b	0.23521964
224	0xbd56a302	-0.05240155
225	0xbaf2df05	-0.00185296
226	0xbdc69e74	-0.09698191
227	0xbd57ac10	-0.052654326
228	0xbdae44d6	-0.08509223
229	0xbc36474c	-0.011125397
230	0x3e06b997	0.13156734
231	0xbe0e0b08	-0.13871396
232	0x3e1da0cc	0.1539337
233	0x3ddd2aaf	0.10799157
234	0x3e9a3c52	0.30124146
235	0x3d8dbd48	0.06920868
236	0xbcddc405	-0.027071008
237	0x3c24577b	0.010030623
238	0xbd0936e3	-0.03349961
239	0x3e0cc4cf	0.13746952
240	0xbe6e6de3	-0.23284106
241	0x3bdd8978	0.0067607723
242	0xbd43bc91	-0.047787253
243	0x3db624c4	0.08893731
244	0xbb23df11	-0.0025004784
245	0xbd851de5	-0.064998426
246	0xbd26fd59	-0.040768955
247	0x3e536ffc	0.20648187
248	0x3e19aff3	0.15008526
249	0x3e19db36	0.15025029
250	0xbda3a74b	-0.07990893
251	0x3e568439	0.20948876
252	0xbdfb2591	-0.122630246
253	0x3e0b0839	0.13577355
254	0x3e48631c	0.19569057
255	0x3cdf83de	0.027284559

fc3.bias f4 [10]
0	0xbe0ff171	-0.14056946
1	0xbf1c0c0a	-0.6095587
2	0x3dce9442	0.10086872
3	0x3e6016af	0.21883653
4	0x3f09d8d5	0.53846484
5	0xbe15b5dc	-0.14620155
6	0x3e62e768	0.22158587
7	0xbe46755f	-0.19380711
8	0x3ee11b8d	0.43966332
9	0xbe873d7b	-0.26414093
